A1_That_s_What_I_LIKE/app/models/glove.model (torch, 109696 bytes, 4 tensors)

center_embedding.weight f4 [4488, 2]
000000 2d 2a 93 bf 23 64 32 3f e8 77 24 bf 01 b1 54 bb
       -1.1497246 0.69684047 -0.6424546 -0.0032454135
000010 89 27 13 bf 6b 32 92 3e 99 4e d1 be 01 e5 2b 3e
       -0.574822 0.2855409 -0.40880278 0.16786577
000020 fb e4 17 bf 59 dc ba 3e c6 34 92 3e d6 2c 6f 3f
       -0.5933377 0.36496237 0.28555888 0.9342779
000030 37 fe 80 3c 8e a5 c2 be ca de d4 3f f2 c5 7a 3f
       0.01574622 -0.38016933 1.663049 0.9795829
000040 04 d6 28 c0 bb 8b 0a 3e 6e bc 00 3f 29 3d 1a 3f
       -2.6380625 0.13529865 0.5028752 0.60249573
000050 47 99 e0 be ac 33 85 3f e5 4f 90 be 9e f9 67 3e
       -0.4386694 1.0406394 -0.28185955 0.22653815
000060 25 e9 1a bf 23 28 dd 3f c7 d7 4f 3f d5 7a ed 3e
       -0.60512 1.7277874 0.81188625 0.46382776
000070 aa 15 3e bf fa db dc 3f 50 fb 00 3e 46 f8 ba 3e
       -0.74251807 1.7254632 0.12595868 0.36517543
000080 45 0c 08 be 6d 0b 9c 3e cf 31 8d 3f 01 fb 4f bf
       -0.1328593 0.30477467 1.1030825 -0.81242377
000090 e1 03 16 3f 96 16 2f bf ca dd 1d be 84 42 56 be
       0.5859967 -0.6839384 -0.15416637 -0.20923811
0000a0 39 f0 63 3e b1 02 93 3f f7 76 be 3e f2 e4 b6 be
       0.22259606 1.1485196 0.37200138 -0.35721546
0000b0 56 49 2e bf bb 64 e8 bc cb 24 24 3f 4e a6 b1 bd
       -0.6808065 -0.028368345 0.6411864 -0.08674298
0000c0 df 66 6a bd 44 93 0e bf cf bc b4 3e d1 50 98 be
       -0.05722701 -0.5569346 0.353003 -0.29749158
0000d0 12 e5 6f 3f bb 33 a7 3f d8 e3 96 3f c8 95 ee bf
       0.9370891 1.3062662 1.1788282 -1.863946
0000e0 f8 80 0f 3f c6 64 34 3d 2e 1e db 3e 1a ea a0 3f
       0.56056166 0.044041418 0.42796463 1.2571442
0000f0 37 f1 08 bf ff 53 52 be fd c0 67 bf 09 d9 a9 3e
       -0.53493065 -0.20539854 -0.9052885 0.33173397
000100 e1 be 57 3f ce 4f 25 bf e2 f7 1c bd 65 e2 67 bf
       0.84275633 -0.645749 -0.038322337 -0.90579826
000110 bf 63 76 bf dc 37 cc 3e 11 58 3a bd c1 8d 02 bf
       -0.9624595 0.39886367 -0.045494143 -0.5099755
000120 7a b2 28 bf 7e 8c 20 3e bb 5f 63 3f bb dc a9 bf
       -0.65897334 0.15678594 0.8881795 -1.3270487
000130 cd 10 3e 3f c8 80 05 3f f3 3b 99 bf 01 79 54 3d
       0.74244386 0.5214963 -1.197142 0.05187321
000140 d0 50 58 3f f2 fe 3f bf 58 56 2b 40 9b 71 8a be
       0.8449831 -0.7499839 2.677145 -0.270398
000150 ff f0 13 c0 29 0e ab bc 2a 81 96 bf 15 23 3b 3f
       -2.3115842 -0.020880776 -1.1758168 0.73100406
000160 12 8e ee be 9e ef c4 be 2e 62 17 be 8b 24 2c bf
       -0.46592766 -0.38464063 -0.14783546 -0.6724326
000170 81 56 e6 be c0 72 8a 3e 6c b9 83 3f 6c 6a 30 3e
       -0.44987872 0.27040672 1.0290961 0.17228097
000180 02 73 d1 be f3 7e fb 3d 8b b2 31 3d e6 0e d1 3f
       -0.40908056 0.12280073 0.043383162 1.6332672
000190 99 95 05 40 8c c6 8b 3f 23 27 c3 3e eb 64 e1 3f
       2.0872557 1.0919967 0.38115796 1.7608923
0001a0 01 cd f8 be 2e 9f 36 bf df 28 11 bf 5a 57 7e 3d
       -0.48593906 -0.7133664 -0.5670299 0.062095024
0001b0 8f f3 d9 3f a9 d7 88 be 0c 9b 90 be 05 17 91 be
       1.7027453 -0.26727036 -0.2824329 -0.28337875
0001c0 13 54 9e 3f b5 2d 1e c0 d1 86 84 bf 2b 70 32 bf
       1.2369407 -2.4715397 -1.0353643 -0.69702405
0001d0 b4 89 b0 3f 49 0d 8b be 6f 07 27 bf fb 08 5e 3f
       1.3792024 -0.27158573 -0.6524572 0.86732453
0001e0 cf ce 7a 3f fb f7 ad be 98 3b 8a 3f 02 06 4a 3e
       0.97971815 -0.33978257 1.0799437 0.19728854
0001f0 16 e0 41 3f 4e c4 47 3e bc 5c 27 bf bc 99 85 3f
       0.75732553 0.19508478 -0.65375876 1.0437541
000200 8a af 25 bf fe a1 dc 3f bb 82 b9 3f 39 86 a1 bf
       -0.64720976 1.7236936 1.4493021 -1.2619087
000210 c3 15 1a be fa d8 92 3f a9 b4 e2 3f c4 7c 9b bf
       -0.15047364 1.1472466 1.7711383 -1.214745
000220 9f 21 37 bf af 44 6a be 8d 9b 3e 3d 8d 33 62 bd
       -0.71535677 -0.22877763 0.046535064 -0.055224944
000230 35 2d ba bf 06 35 0c 3e 4c b4 f5 be 8b 71 ae be
       -1.4545046 0.13692102 -0.47989118 -0.34071
000240 9b 99 bc be fa d7 c9 3e ee 2c 73 3f 4b 24 05 40
       -0.36835942 0.3942259 0.9499043 2.0803401
000250 92 69 fb 3e f2 f6 11 3f f8 3d da 3f f1 4a 93 3f
       0.4910398 0.57017434 1.7050161 1.1507245
000260 65 22 cf 3e 16 ee 5b be 8a 88 9e be 36 55 e8 3f
       0.40455928 -0.21477541 -0.30963546 1.8151004
000270 8e 60 b8 3e c2 cc 93 bf 1c 25 27 bf dd 11 5c bc
       0.36011165 -1.1546862 -0.65291 -0.013431993
000280 b4 d8 bb 3f b7 7e 1e 3f d6 70 30 bf ea 33 9d 3e
       1.4675508 0.619121 -0.68922174 0.3070367
000290 5f 1a f5 be 1c 54 df be da 5a 4a bc 0d b7 9f 3f
       -0.47871682 -0.43618858 -0.012350762 1.2477738
0002a0 0c 33 e1 3e 36 db 0e 40 f7 c5 7f bf 68 05 0a bf
       0.43984258 2.2321296 -0.99911445 -0.539145
0002b0 be 3a 65 be 5d 34 82 bf 49 a6 2a 3f 3d e1 4e 3f
       -0.2238569 -1.017223 0.6665998 0.80812436
0002c0 31 c4 22 c0 e4 79 cd be fe 0a 83 3e 04 b3 d7 bf
       -2.5432246 -0.40132058 0.25594324 -1.6851506
0002d0 0e a6 c5 3e 76 41 5a bf ba 97 62 bf b3 d0 90 3f
       0.38603252 -0.85256135 -0.88512766 1.131369
0002e0 75 a6 db 3d ab 44 9b 3e da 13 62 bf 8c 6f 17 3f
       0.107251085 0.30325827 -0.8831154 0.5915458
0002f0 7e 3c 58 3f c3 c8 72 3f b9 58 7c 3e 94 e1 6c bf
       0.84467304 0.9483759 0.2464322 -0.92531705
000300 ac 1b af bd ce 12 ab 3e e2 e5 65 bf 95 62 d3 be
       -0.085502 0.33412784 -0.898039 -0.4128615
000310 90 9d d4 be 36 30 8d bf c2 48 b8 3e 88 d0 0a c0
       -0.4152646 -1.1030338 0.3599301 -2.1689777
000320 18 59 68 bf 61 92 44 bd b0 1c e8 bd 4e f6 67 3d
       -0.90760946 -0.04799116 -0.11333597 0.05663138
000330 34 89 71 3f e5 f2 00 bf 7d 7c 07 bf af fc 92 3e
       0.9434998 -0.5037063 -0.5292433 0.28708407
000340 84 25 98 bf 4b c2 74 bf 08 ec 69 bf 0c 3b 0f 3f
       -1.1886449 -0.9560897 -0.9137578 0.55949473
000350 78 85 26 3f b1 ed 87 bf 29 e4 ec bf ca 2d 04 3f
       0.6504741 -1.0619413 -1.8507129 0.5163237
000360 a8 b8 35 bd c0 94 52 3f 10 16 d9 3e 82 d5 be 3f
       -0.044365555 0.82258224 0.42399645 1.4908907
000370 55 c4 95 3d 18 15 e0 3e 6a 98 28 3f 85 09 ac be
       0.07312838 0.43766093 0.65857565 -0.33601013
000380 4c 22 c0 bf 82 03 00 3e 7b fa 0c bf 80 fd 09 3e
       -1.5010467 0.12501338 -0.550697 0.13475609
000390 18 aa b1 bf 79 cb 5e 3f f3 a3 2b 3e b1 56 b9 3e
       -1.3880033 0.87029225 0.1676176 0.36198953
0003a0 96 fa 8e 3e 1f d9 0b 3f 58 2d ea bd 62 15 06 c0
       0.27925557 0.54628175 -0.1143443 -2.095055
0003b0 1b b2 53 be 7d f4 07 3f 71 0a 5d 3d 91 01 8c 3e
       -0.2067341 0.53107435 0.053965036 0.27344945
0003c0 a0 8a 37 bf 60 8d 8c be f4 2c 85 3f b5 f5 d3 be
       -0.716959 -0.2745161 1.0404344 -0.41398397
0003d0 3e 28 e9 bd 01 32 3e 3d be c3 3c 40 a4 11 35 3f
       -0.11384629 0.046434406 2.9494472 0.7073004
0003e0 5b b9 cb be 74 a0 7b bf 6e 02 5d bf c2 e2 27 3e
       -0.39789852 -0.9829171 -0.8633183 0.16395095
0003f0 45 e5 94 3f 63 4b 0b 3f ee 50 d1 3e 01 f4 d7 bf
       1.1632468 0.54411906 0.40882057 -1.6871339

outside_embedding.weight f4 [4488, 2]
000000 0d ad 84 be 4f 80 be 3d 76 6d 2e 3f 63 2d b2 bf
       -0.25913277 0.09301817 0.68135774 -1.3920101
000010 59 a7 99 bf 65 fc 5e 3f 2c af 10 bf 2c 44 95 3f
       -1.2004195 0.87103873 -0.5651729 1.166143
000020 34 9a 8c 3e 57 a7 d6 bf 10 7e cd bf fb d0 b8 be
       0.27461398 -1.6769818 -1.6054096 -0.3609694
000030 74 9a 00 3f 84 6b f3 3e c6 91 86 bf e9 57 ee 3e
       0.50235677 0.47542965 -1.0513237 0.46551445
000040 86 35 86 3f 77 c1 3a 3f d5 62 30 3f 53 01 b8 3b
       1.0485084 0.72951454 0.68900806 0.0056153922
000050 3e 38 17 c0 80 e2 db 3d 97 ee 86 3f e1 e6 0e 40
       -2.3628078 0.10736561 1.0541562 2.2328417
000060 c0 de c8 be e7 ac 87 be a6 78 1e 3f 59 55 c3 3d
       -0.39232445 -0.26499102 0.61902845 0.09537763
000070 a5 1b a8 bf 4f 0c 30 bf 3a b6 f6 bf 04 68 bf bf
       -1.3133436 -0.6876878 -1.9274361 -1.4953618
000080 37 8e 6b bf 94 46 5c 3e db e8 2f 3d df 8e ef be
       -0.9201388 0.21511298 0.042946678 -0.4678869
000090 31 e9 a6 3f 10 fa e1 bf 81 ef 25 3f b3 b3 84 bd
       1.3039914 -1.7654438 0.6481858 -0.064795874
0000a0 ad 06 1c 3f 50 e0 0b 3f f4 e4 7d 3f aa ee 94 3e
       0.60947686 0.5463915 0.9917748 0.29088336
0000b0 a2 25 b0 3f 55 c9 11 3d b0 d1 0b c0 4c 94 de 3f
       1.3761485 0.035592396 -2.1846733 1.7389007
0000c0 9d d5 45 be a9 de 3d 3f ab a8 ee 3e bf 30 e9 3f
       -0.19319768 0.7416788 0.46613058 1.8218001
0000d0 9b d1 74 bf 61 f3 d0 3d 8c 7f 4b 3e 7b 40 0b 3f
       -0.9563233 0.10202671 0.19872874 0.54395264
0000e0 8d f5 6f bd 49 a7 09 bf 4b f5 94 bf f4 c3 a6 3e
       -0.058583785 -0.5377088 -1.1637357 0.32571375
0000f0 9f 22 e0 3f 70 28 6d bf b5 0c f3 3e 44 65 7e 3e
       1.7510566 -0.9263983 0.47470632 0.24843317
000100 01 be 76 bf fb 90 7a 3f 20 ab e7 3d a9 ba 64 3f
       -0.9638367 0.9787747 0.113119364 0.8934732
000110 63 cc b9 3e f9 b2 8c bf 29 fe f9 be 38 77 6d 3f
       0.36288747 -1.0992118 -0.4882672 0.9276004
000120 4b ae 75 3f 8a b6 dc 3f 64 9e f9 be 00 51 cd 3f
       0.95969075 1.7243207 -0.48753655 1.6040344
000130 d3 f0 be 3f dc 24 b4 be 62 5b d2 3d 4c 6c 14 3f
       1.4917244 -0.3518437 0.10271336 0.5797775
000140 fb 7c 19 bf 47 3f ed bf 8d 60 9c 3d 0e a1 0e be
       -0.5995633 -1.8534936 0.07635603 -0.13928625
000150 8f 83 bf 3f 89 42 fd be 56 9d 35 bf 66 b9 26 bf
       1.4962023 -0.49464825 -0.709432 -0.65126646
000160 84 e8 07 3f c7 d3 f3 be 2b 8e 6d 3f 7e 0f 01 be
       0.53089166 -0.4762251 0.92795056 -0.12603566
000170 7b d0 6c be 05 14 68 3f a2 a6 d7 bf 38 ba 0c 3f
       -0.23126404 0.9065555 -1.6847727 0.5497165
000180 3f fc 2f bf 11 30 3e 3f 96 2e 00 c0 07 14 94 3e
       -0.6874427 0.74292094 -2.0028434 0.2892153
000190 41 54 8a bd 0c bb 9c be 8b 7f 78 be 14 43 61 3f
       -0.067543514 -0.30611455 -0.24267404 0.8799298
0001a0 68 2e 91 bf 4b 26 1a bf 68 15 b2 3f 57 34 b9 3f
       -1.1342287 -0.6021468 1.3912783 1.4469098
0001b0 79 8c d4 be 1a 9a ea be ef e7 c0 3f e0 e6 99 be
       -0.41513422 -0.45820695 1.507078 -0.30058956
0001c0 21 a7 be bd ab 77 61 3f d1 78 b2 be 22 1d af bd
       -0.09309221 0.88073224 -0.348578 -0.085504785
0001d0 b5 53 86 bf ab d9 59 3f 0c b9 9c bf 24 86 8c bf
       -1.0494295 0.8509776 -1.2243972 -1.0978436
0001e0 21 5f 4e 3f fb 75 07 bf 12 aa 2f bf 5a 60 d7 3e
       0.80613905 -0.529144 -0.6861888 0.42065698
0001f0 ed 4a df be a4 45 b4 3e 6c c6 2b 3e 98 9d a1 be
       -0.4361185 0.35209382 0.1677491 -0.31565547
000200 0b 4d 13 be d4 0d b2 bf 75 63 37 3f c3 bc c9 bf
       -0.14384858 -1.391047 0.71636134 -1.576073
000210 cb a1 ff 3e 8e 1e ac 3e 07 67 43 3d b5 0a 4c 3d
       0.49928126 0.3361706 0.047705676 0.0498149
000220 81 8a 27 be 01 3a 99 bb 14 87 73 3e 4a 20 4c 3f
       -0.16361429 -0.004676104 0.23781997 0.7973677
000230 53 68 9c 3e b9 c2 89 be c2 a4 da 3e 4f 2f a5 3f
       0.30548343 -0.26906374 0.42703825 1.2905062
000240 9a bc c8 3c ea 46 e4 be 9a 87 27 bf e9 e8 ad 3e
       0.024503995 -0.44585353 -0.65441287 0.3396676
000250 ae 12 8a be c6 21 dd bf 4f 5c 86 3f 12 2b 32 3f
       -0.26967376 -1.7275932 1.049692 0.6959697
000260 b6 4e 10 3f 52 f6 57 3f 54 03 71 be c1 6f 84 bf
       0.56370103 0.8436023 -0.23536426 -1.0346605
000270 c9 de 2d bf 26 e2 40 be 0d da 29 3f c4 68 57 be
       -0.6791807 -0.18836269 0.66348344 -0.21036059
000280 52 44 66 bf 23 b2 a6 3e 20 ad 8e bf e4 c8 81 be
       -0.89948 0.32557783 -1.1146584 -0.2534858
000290 dc cb d4 bf f3 38 01 3e 31 a7 dd 3d 0e 80 56 bf
       -1.6624713 0.1261938 0.10822905 -0.83789146
0002a0 45 ec fd bd 5d b3 91 be f7 74 27 3e e2 9b b1 be
       -0.123985805 -0.28457156 0.16353212 -0.34689242
0002b0 c0 a8 02 3f ba da f2 be 2b fd 18 3f 70 de 6d 3e
       0.5103874 -0.474325 0.59761304 0.23229384
0002c0 7b 4b 14 bf 4c 15 91 bf 52 60 d4 3d 5e 44 0a c0
       -0.57927674 -1.1334624 0.10369934 -2.1604228
0002d0 ed d5 2c bf 23 a9 19 bf 36 7c 93 3f cd 94 1c c0
       -0.67513925 -0.6002371 1.1522281 -2.446582
0002e0 28 9e 96 3d 78 5b 5f bf ec c6 15 3f 94 90 6a 3e
       0.07354385 -0.87248945 0.58506656 0.22906715
0002f0 2b 6c 31 bf 6e 98 d2 3e bd 46 09 3f 71 30 37 bf
       -0.69305676 0.4113192 0.53623563 -0.7155829
000300 bc e8 d8 3f 5d 14 d6 be 8f 2c 9d bf c9 bc b2 be
       1.6946025 -0.4181241 -1.2279223 -0.34909657
000310 2f 68 b0 be 07 c7 e2 3d 47 b6 cd be ce 5c b7 bf
       -0.34454486 0.11073118 -0.4017813 -1.4325197
000320 76 8c 25 3e 6f 74 80 bb 20 12 56 3f b9 76 90 be
       0.16166863 -0.00392013 0.83621407 -0.28215578
000330 31 99 c4 3d 99 7c 3d 3f 3f fe 51 3e 17 8d aa bc
       0.095995314 0.74018246 0.20507143 -0.02081923
000340 8b e1 8c 3e 38 b2 bf 3f ef 1b b6 bf 01 86 10 3e
       0.27515826 1.4976263 -1.4227275 0.14113618
000350 e0 3c ab be d1 1c bf 3f e6 8f 93 3f 8c 2b ac 3e
       -0.3344488 1.4930669 1.1528289 0.33626974
000360 49 6a 96 3e ff 4e 9a bc c6 43 a7 be 04 c1 61 3f
       0.29377964 -0.018836496 -0.32668895 0.88185143
000370 fd b9 89 bf 82 6d ab bd aa b3 71 3f fe 48 59 bf
       -1.0759884 -0.08370496 0.9441477 -0.84877
000380 80 10 9e 3e df d2 e8 3b 0c fb cf bf 95 7c 16 40
       0.30871964 0.007105216 -1.6248488 2.351354
000390 8e 61 a0 bf 4a 8d 84 3f fe ef 37 be 4b 46 91 bf
       -1.2529771 1.0355618 -0.17962644 -1.1349577
0003a0 d8 9d 4a 3c 51 74 55 bf f9 6c 95 3e 6c 3c 91 3f
       0.012366734 -0.8338061 0.29184702 1.1346564
0003b0 f6 6f 09 bf ae 40 1a bf da 39 91 3f b6 ce 2f 3c
       -0.53686464 -0.60254943 1.134578 0.010730436
0003c0 6d 39 8b bf fc 84 9f 3e ca 79 83 bd 84 38 4f bf
       -1.08769 0.31156147 -0.06419714 -0.8094561
0003d0 3d 99 96 bf ec 67 10 3e e8 f3 2d 3d 17 c0 ad 3e
       -1.1765515 0.14102143 0.042468935 0.33935615
0003e0 a9 73 4b be a6 39 54 be 6f fd 17 be 6d 39 96 3e
       -0.1986834 -0.20725116 -0.14842771 0.29340687
0003f0 1a 39 ab 3f c2 9d a3 bd 22 97 e2 bf 15 d9 17 3f
       1.3376801 -0.07989074 -1.7702372 0.59315616

center_bias.weight f4 [4488, 1]
000000 6d bc 8b 3f 00 a7 ff 3f 29 7d 9f bf 66 4e 31 bf
       1.0916878 1.9972839 -1.2460071 -0.6926025
000010 cd aa ba be 53 7b df 3e 45 be e6 3e a5 06 ae bf
       -0.36458436 0.43648776 0.4506704 -1.3595778
000020 a5 fb 07 bf 7f da 4f 3f 56 e2 a7 3f f8 08 58 bf
       -0.53118354 0.81192774 1.3115947 -0.84388685
000030 74 1d eb 3e 61 b5 b8 bf 6c ab b1 3e 17 2c 28 be
       0.45920908 -1.4430352 0.34701097 -0.16423069
000040 e1 c4 ab be 33 e7 5c 3e cc 0b 8e be 80 4f 93 3e
       -0.33548644 0.2157257 -0.27743375 0.2877159
000050 01 fd a2 3f 64 22 41 be 40 77 f5 3d 84 b0 75 be
       1.2733461 -0.18860775 0.11985636 -0.23993117
000060 94 68 52 bf 72 ea ec 3e 81 56 c6 bf 4f 20 10 40
       -0.82190824 0.46272618 -1.5495149 2.251972
000070 9c 3e 9b 3f 47 67 99 3e 7d 1e 0b bf c5 05 7f bf
       1.2128482 0.29961607 -0.54343396 -0.9961818
000080 c9 d2 81 3f 0a d4 23 40 2c c2 eb be 4b 9e de 3d
       1.0142452 2.5598168 -0.4604658 0.10870036
000090 4f e7 73 3f bc 8e 8d 3f 21 8b 42 3c 84 a5 89 3f
       0.95274824 1.1059184 0.011873991 1.0753636
0000a0 fa e5 24 bd fd 95 80 3f e3 5c 6f be 3c 61 8c be
       -0.040258385 1.0045773 -0.23375277 -0.27417934
0000b0 6d 8d f9 be 69 b8 b2 3f 45 0c 17 be a1 17 9a 3f
       -0.48740712 1.3962528 -0.14750774 1.2038461
0000c0 86 7c 65 3f 93 77 10 c0 4c 7d b7 3e 0d b1 43 3d
       0.8964313 -2.2572982 0.3583778 0.04777627
0000d0 52 0d 29 40 a1 9b 25 3c 22 ac 9c bf 53 44 a8 3f
       2.641438 0.010107906 -1.2240031 1.3145851
0000e0 7a 1b 56 3f b2 84 82 bf 99 6b b6 bf 28 c5 53 bf
       0.83635676 -1.0196745 -1.4251586 -0.8272271
0000f0 ea 51 81 bf 0b 4e 46 bf 01 c2 9c be 1d f4 82 be
       -1.0103123 -0.77462834 -0.30616763 -0.2557687
000100 c2 51 2f 40 83 fd 91 be a0 70 64 3e 6a bf 8f bf
       2.739365 -0.28513727 0.22308588 -1.123029
000110 b4 bd 16 bf 12 43 45 3f 12 b0 47 bf 1e f9 98 3e
       -0.58883214 0.77055466 -0.78003037 0.2987756
000120 fd e4 08 40 0b 4d 48 bf 76 7c ce be cc 85 de 3f
       2.1389763 -0.7824256 -0.4032933 1.7384582
000130 e0 fa 64 bd d7 72 a5 3f fb dc aa 3f 4c 5c 45 3d
       -0.055903316 1.2925671 1.3348688 0.048183724
000140 cc 62 b8 bf 37 c3 bf be 44 e8 99 bf b8 96 62 3f
       -1.440515 -0.37453625 -1.2024007 0.8851123
000150 10 8f 7b bf b2 40 bf 3f 7a 54 cf 3f c6 83 93 bf
       -0.9826517 1.4941618 1.6197655 -1.1524589
000160 11 2d 92 3f 4d 91 fe be 14 f6 93 bf 18 30 44 3f
       1.1420003 -0.4972023 -1.1559472 0.76635885
000170 2f b5 30 be 9a fe 88 3e 00 b2 42 3e d1 01 97 be
       -0.17256616 0.26756746 0.19013214 -0.29493573
000180 2b 7f 3e be c3 ca fe 3d 8c 21 18 3f 21 df 7d be
       -0.18603198 0.124410175 0.5942619 -0.24792148
000190 d2 b2 74 bf ad 78 0f bf a6 89 90 bf b1 01 af 3f
       -0.9558536 -0.5604351 -1.1292007 1.3672391
0001a0 99 bc 69 be dc f6 b8 bf 3a 9d 97 bf 3a 6f 1e bf
       -0.2282585 -1.4450336 -1.1844857 -0.6188847
0001b0 bb 97 8c 3f c5 90 bc 3e d6 fe a7 3d f5 57 22 40
       1.0983804 0.368292 0.08202903 2.5366185
0001c0 e9 c7 51 3f 1c a5 a7 be 3b 79 7b be b8 7c 7d 3f
       0.81945664 -0.32743156 -0.24557965 0.9901843
0001d0 0f 25 79 3e 0d 7b d4 bf 0c 79 14 3f f9 51 f5 bf
       0.24330543 -1.6600052 0.579972 -1.9165641
0001e0 90 cd 8f 3f 35 9d 6e 3f ec 78 51 be cf 44 ca 3e
       1.1234608 0.9320863 -0.20456284 0.39505622
0001f0 b4 d8 39 3f c6 39 1a bf 8f ef ef 3e e5 5e 51 3f
       0.7259629 -0.60244405 0.46862456 0.8178542
000200 ff 51 09 40 af 12 94 be c0 a3 a1 3d 38 f5 59 bf
       2.1456296 -0.28920504 0.07892561 -0.851398
000210 52 cd 9c bc b8 a2 0a be 7f 70 71 3e a3 58 ae bf
       -0.019140873 -0.13538635 0.2357807 -1.36208
000220 c4 ba ce 3d d8 23 34 be 88 d5 8d 3f 9c e2 c1 3d
       0.100942165 -0.17591798 1.108079 0.094670504
000230 ff c7 4c 3f 2a ac 6e 3d 80 86 70 3d d0 bc bc bf
       0.7999267 0.058269657 0.05872202 -1.4745121
000240 58 d1 82 be b4 ae 89 be 6f 14 f6 3f f0 4a c6 bf
       -0.25550342 -0.268911 1.9224986 -1.5491619
000250 67 87 e9 3f 78 1d 85 be da cd fc 3f c7 04 27 3f
       1.8244447 -0.25999045 1.9750321 0.65241665
000260 88 69 80 bf f9 21 21 40 de 99 50 3f ea 63 02 40
       -1.0032206 2.5176985 0.8148478 2.0373483
000270 ba 1e 45 3f 9a f3 81 3e 21 cc e3 3e dc d8 2d bf
       0.7700001 0.25381166 0.44491675 -0.67909026
000280 12 91 53 3f da 9d a1 3e c1 7d 0c 3f 0b a4 25 3e
       0.82643235 0.31565744 0.54879385 0.16175859
000290 06 95 ef 3f 51 d9 06 40 02 24 36 be 47 86 66 bd
       1.8717353 2.107014 -0.17787173 -0.0562804
0002a0 50 1d 25 3f 20 2e 97 3f 0b ac ad be fa 52 5e 3d
       0.6449785 1.1810951 -0.3392032 0.05427835
0002b0 53 8c 58 3f 2b 36 7c 3f c6 bb b3 bf 99 c7 e4 be
       0.8458912 0.98520154 -1.4041679 -0.4468353
0002c0 c5 9d 92 bf 21 22 a4 3f 9b e7 88 bf 98 05 ff 3d
       -1.1454397 1.2822915 -1.069568 0.12452239
0002d0 3d 65 c3 bf e3 a6 ab 3f f1 c9 83 3f 4b b1 cb 3e
       -1.526527 1.3410305 1.0296003 0.397837
0002e0 ea 54 d5 3c 94 9b 87 be 65 6d 1b 3f 29 0b 87 3f
       0.026041467 -0.26485884 0.607138 1.0550281
0002f0 8e e1 57 be a7 1c 86 bf 58 9b 07 bf d6 7e 09 bf
       -0.21082136 -1.0477494 -0.5297141 -0.5370916
000300 a4 a5 08 40 91 35 b9 3e 96 a5 12 bf 87 73 46 3f
       2.13511 0.3617368 -0.57283914 0.7752003
000310 73 e5 c4 bf f3 5f d5 bf 71 1c c5 bd 03 8c 69 bf
       -1.5382522 -1.6669906 -0.096245654 -0.91229266
000320 78 cf 3d 3f 52 4f 94 bf 15 bf 80 3f 00 5b 1e be
       0.741447 -1.1586707 1.0058314 -0.15464401
000330 54 21 dd be 38 de 47 bf 30 d2 2a be de cf 0f 3e
       -0.4318949 -0.78073454 -0.16681743 0.14044139
000340 6f 2c 8a bf ef 5b 13 c0 8f 69 8c bf ad c6 9d be
       -1.079481 -2.3024862 -1.0969714 -0.3081564
000350 3c bc c6 3f e2 2c 37 bf 6d 60 88 be 4f 34 04 be
       1.5526195 -0.7155286 -0.26636067 -0.12910579
000360 8e f0 26 3f 8a 9f f3 3e fa a5 0c bf 86 24 eb 3e
       0.6521081 0.47582656 -0.5494076 0.45926303
000370 6e a3 6e 3f 5c 3b e1 bf 41 d2 b5 3d 47 39 59 3e
       0.93218124 -1.759624 0.088779934 0.21213256
000380 15 92 0e 3f 4a 49 9e 3d 01 8e f0 be 20 df 26 3f
       0.55691653 0.077288225 -0.4698334 0.6518421
000390 1a 05 93 3f 8d 7b 52 be 1a 60 59 3f 61 cf 20 bf
       1.1485932 -0.20554943 0.84912264 -0.62816435
0003a0 93 be 76 3f 12 92 18 bf fd 13 d6 3f 13 90 de 3f
       0.96384543 -0.59597886 1.672485 1.7387718
0003b0 c4 f5 c5 bf 94 f2 cd 3e d6 fc fe 3d 76 d1 67 bf
       -1.5465627 0.40224135 0.124505684 -0.9055399
0003c0 48 ad 6d bf 72 8a fc be 1f 23 ea 3f 8a 01 47 bf
       -0.9284253 -0.49324375 1.8291968 -0.77736723
0003d0 64 ce 23 bf c8 40 9d 3e 0b 63 91 3e 4c 53 c1 3e
       -0.639868 0.30713487 0.28395876 0.37758863
0003e0 15 0e 75 3f a2 9f ce be 90 62 8f bf cd 8f e6 bd
       0.9572461 -0.40356165 -1.1201954 -0.112578966
0003f0 cb 7b 29 3f b2 b5 68 bf 6d 8c a5 be 90 d2 d1 bf
       0.6620452 -0.90902245 -0.323337 -1.6392384

outside_bias.weight f4 [4488, 1]
000000 01 c7 0c c0 b3 28 db bf 12 81 26 bf c1 76 a9 3e
       -2.1996462 -1.7121795 -0.65040696 0.33098415
000010 2e 6c a1 be be 15 a9 3f ca 17 a3 3f 1f 5e 82 bf
       -0.31527847 1.320976 1.2741635 -1.0184973
000020 a0 d5 9a 3f 23 43 97 3f 96 43 9c 3f d5 e9 5b 3f
       1.2096443 1.1817364 1.2208126 0.85903674
000030 ee cb 0a 3f 10 85 cb 3f e3 42 22 3e 54 92 8a bf
       0.5421742 1.5899982 0.15845828 -1.0825906
000040 fd c0 8a 3f ab 1f 79 bd 1b 1b 50 3e 89 a2 8f bf
       1.0840145 -0.060821217 0.2032284 -1.1221477
000050 3c f3 ef 3e 27 a7 e2 3f a6 41 cd 3f b7 f0 1b bf
       0.4686526 1.7707261 1.6035659 -0.60914177
000060 9f af 59 3f 34 75 e4 3e ec 31 e7 bf 77 9c 63 be
       0.850336 0.4462067 -1.806211 -0.22227655
000070 d2 cf d2 bf d8 be cc be 29 73 13 c0 c8 6d 04 bf
       -1.6469672 -0.39989352 -2.3039038 -0.5173001
000080 de 19 1b bf eb 3e 09 c0 6b 88 48 be 46 d4 a6 3d
       -0.60586345 -2.1444652 -0.1958329 0.08145957
000090 76 3e 1b bf 81 48 9f bf a1 c7 96 3e 02 e5 f3 bf
       -0.6064218 -1.2444001 0.2944918 -1.9054263
0000a0 15 f1 ed bb 26 e9 b9 3e 03 77 4e bf a2 04 87 be
       -0.0072614052 0.3631069 -0.8065035 -0.26370722
0000b0 40 58 b5 3e 36 1c 39 3f 6c a9 89 bf 61 d8 2e bf
       0.35418892 0.7230867 -1.0754828 -0.6829892
0000c0 28 f0 4e be 94 94 af be 0f 78 ea bf 5d 50 11 3f
       -0.202088 -0.34293044 -1.8317889 0.5676325
0000d0 e9 9b 9e 3d 07 a4 d0 3e 46 9b 7a 3f 49 52 01 bf
       0.07744581 0.40750143 0.9789318 -0.5051618
0000e0 5b 16 8d bf ff 76 fa be ce a7 04 bf 0c e5 0c bf
       -1.1022447 -0.48918912 -0.5181855 -0.55037
0000f0 02 6a 05 3f 55 67 a0 bf d4 76 95 3f a3 d0 2d 3f
       0.5211488 -1.2531534 1.1676888 0.6789648
000100 a8 c9 bf 3f ee 42 43 3e f6 0f 47 3f 37 a3 48 3f
       1.4983416 0.190685 0.7775873 0.78374046
000110 1b e2 fb 3e c7 aa ce be 1b 24 ca 3c fb 68 68 3e
       0.49195942 -0.40364668 0.02467542 0.22696297
000120 27 9f 39 be db 5d 13 40 87 d0 3c 3f 26 12 79 be
       -0.18127118 2.3026035 0.7375569 -0.2432333
000130 de a8 c3 be 10 26 e3 be e3 20 a9 bd fd 4a d3 3d
       -0.38214773 -0.44364977 -0.08258226 0.10317037
000140 1d 5b 4c bf 50 b3 0b bf 0b 84 37 3f ae 66 00 40
       -0.7982653 -0.54570484 0.71685857 2.006267
000150 92 0f 95 3e 20 da d9 3f c3 f3 2a be c9 31 6f 3e
       0.29113442 1.7019691 -0.1669455 0.23358835
000160 10 17 97 3f 51 7c 48 3f c7 16 88 3f 50 fa 4f bd
       1.1803913 0.7831469 1.0631951 -0.050775826
000170 48 71 fb bf 9d 7c 45 3f 42 ac 10 40 76 26 06 bf
       -1.9643946 0.7714327 2.2605138 -0.52402437
000180 ee 54 78 3e 70 40 91 3f 4e 85 96 3e 61 d6 ce 3e
       0.24251148 1.134779 0.29398578 0.40397933
000190 61 b3 c4 3e 2b 84 e5 3f c6 e5 a0 bf 6e 63 9d 3f
       0.38418105 1.793096 -1.2570121 1.2295969
0001a0 2f 6d 19 be 9a 0a 36 3f 20 18 03 3e 90 ea a6 3e
       -0.14983056 0.71109927 0.12802172 0.32600832
0001b0 39 22 01 3f f7 79 24 3f b5 db 84 be 4f ce 1b bf
       0.50442845 0.64248604 -0.25948873 -0.60861677
0001c0 75 7c c1 bf 55 b5 0c 3d 98 48 82 3e e9 fc 92 3e
       -1.5116106 0.03435262 0.2544601 0.2870858
0001d0 2d ca cf 3e bf 4a a5 3f a9 9e 2c bf 33 54 88 bf
       0.40583935 1.2913436 -0.67429596 -1.0650696
0001e0 64 42 b4 be 29 0d eb be 58 97 d4 3e 23 12 a9 3e
       -0.35206902 -0.45908478 0.41521716 0.3302165
0001f0 f5 36 d5 3e c4 58 ee 3e 86 eb d8 bd 5c 2c 78 3f
       0.4164349 0.46552098 -0.105917975 0.9694269
000200 85 be ef 3e f2 34 2b 3e 36 f4 07 be 4f 2f db 3f
       0.46825042 0.16719416 -0.13276753 1.7123812
000210 bd d1 9e bf 2b 42 e5 3e 87 23 92 3f 09 cd 5b 3f
       -1.2407757 0.44777045 1.1417092 0.85859734
000220 c9 d9 98 3e 60 1f d1 3f d9 b7 b1 bd f9 26 34 bf
       0.29853657 1.63377 -0.08677644 -0.7037197
000230 8f c6 9c bf af b9 5d bf 6e cd 98 bf e2 8b 96 3e
       -1.2248095 -0.86611456 -1.1937692 0.29403597
000240 75 4a 5d bf c8 f2 65 3e 74 6d 97 be 38 e2 76 be
       -0.8644174 0.22455895 -0.29575694 -0.24109733
000250 89 b8 68 bf 09 0c 58 3e dd 0d 51 bf 63 ce 0d 3f
       -0.9090658 0.21098341 -0.8166178 0.55393046
000260 b3 49 8f 3f 58 f7 d9 3e 7b b6 ce 3e 9a d9 16 3f
       1.1194366 0.4257152 0.40373597 0.58925784
000270 14 3d 60 3f 15 6a 85 3f c7 a5 41 be ec 71 49 3f
       0.875932 1.0422999 -0.18910895 0.78689456
000280 d2 3e a0 3e 2b a0 9e 3f 2d c1 f7 3d 60 a0 9e bd
       0.31297928 1.2392629 0.12097392 -0.07745433
000290 1d f5 90 3f 40 9a 6c 3f 6d be 4f 3d 9d 3d 82 bf
       1.1324803 0.92422867 0.050718714 -1.0175053
0002a0 e1 af 9d 3f 0d 5b 8b bf b3 a4 cb 3f be c8 ac 3f
       1.2319299 -1.0887161 1.5909637 1.3498762
0002b0 14 5f 5a be 45 d0 84 bf 43 89 ec 3e dd 10 9f be
       -0.21325332 -1.0376059 0.46198472 -0.31067553
0002c0 83 f0 22 3b c4 d4 eb 3d f0 84 e6 bf 10 fb 94 3f
       0.0024862594 0.11515191 -1.8009319 1.1639118
0002d0 4f a1 12 bf de 79 aa bf 81 55 62 3f 68 7f 1a 3f
       -0.5727739 -1.3318441 0.8841172 0.60350657
0002e0 aa ea c9 be 1b 74 13 bf 20 51 56 bf c3 f6 2c 3f
       -0.39436847 -0.5759904 -0.83717537 0.6756403
0002f0 92 db 81 3c e1 e9 a8 3f e7 50 04 c0 0d 7e 79 bf
       0.01585177 1.3196374 -2.067438 -0.97457963
000300 f4 4a a3 bd d7 01 1e bf a4 ff 5b 3f 53 bd 08 3f
       -0.079732805 -0.6172156 0.8593695 0.53413886
000310 de 1e 54 bf a0 bd a3 3d 4f d6 59 3f c7 b5 b0 3e
       -0.828596 0.079951525 0.85092634 0.34513685
000320 4b 98 38 bf b7 ff ea bd ca 45 31 bf e6 81 24 3e
       -0.7210738 -0.11474555 -0.69247115 0.16065177
000330 32 eb 4e 3f 27 9d df 3e 23 c6 fd be 27 0c 7b 3f
       0.8082763 0.43674585 -0.4956523 0.9806542
000340 81 fe 28 c0 d3 e9 28 be f7 0c 0d 3f 73 f6 d3 3e
       -2.6405337 -0.16495447 0.5509791 0.41398963
000350 33 96 10 3e 5a 74 67 bd 24 3f 07 c0 13 83 91 3f
       0.14119796 -0.056507446 -2.1132288 1.1368126
000360 11 7f 6b bf 48 66 02 3e ea d7 32 3d 40 5e 6f be
       -0.9199076 0.1273433 0.043662943 -0.23375797
000370 1d 82 88 bf a0 db 31 bf ba ad 4b bf 4b 81 b4 bd
       -1.0664707 -0.69475746 -0.7956196 -0.08813723
000380 50 94 b0 3e c2 87 a1 bf a0 f2 84 3f 6c ad d2 be
       0.34488153 -1.2619555 1.0386543 -0.41147935
000390 25 a7 e1 3f fb a3 71 be 58 39 43 3f 01 5a 1e 3f
       1.7629133 -0.2359771 0.76259375 0.61856085
0003a0 ee 9a 51 3f 5a a3 31 be c6 fc 21 bc 3b 68 d4 bf
       0.8187703 -0.1734747 -0.009886926 -1.6594309
0003b0 39 f6 ef 3e 55 2f dc bd 93 3f 1c 3f 34 ca 4d 3f
       0.4686754 -0.10751215 0.61034507 0.8038666
0003c0 05 54 34 bf 69 76 a9 3f d0 84 94 3f 56 2e 04 bf
       -0.70440704 1.3239261 1.1603031 -0.51633203
0003d0 c7 27 52 40 10 5d bc 3d ff 31 f0 3f fc 57 9c 3f
       3.2836778 0.09197438 1.8765258 1.2214351
0003e0 e4 2f 19 bd c2 2b 92 3f fd 3f c4 be 03 c3 28 be
       -0.037399188 1.1419604 -0.3833007 -0.16480641
0003f0 2a 87 ff be 8f e6 40 3f c3 0b 5c bf ff 09 08 be
       -0.4990781 0.75351804 -0.85955447 -0.13285063
