A1_That_s_What_I_LIKE/app/models/neg.model (torch, 181056 bytes, 2 tensors)

embedding_center.weight f4 [4488, 5]
0	0x3f537f48	0.8261609
1	0xbeffdce5	-0.49973217
2	0xbfa8b821	-1.3181192
3	0x3f0d22e5	0.5513137
4	0x3f6cd82c	0.9251735
5	0x402218ce	2.532764
6	0x3e79c1c5	0.24390323
7	0xbda6193a	-0.0811028
8	0xbfa47c41	-1.2850419
9	0xbf77b0fd	-0.9675444
10	0xbfba164e	-1.4538057
11	0xbeb58d37	-0.354593
12	0x3e87e359	0.2654064
13	0x3f969b41	1.176613
14	0xbf86297c	-1.048141
15	0xbf5eb121	-0.8698903
16	0xbf74cd95	-0.95626193
17	0xbf0c3ae9	-0.5477739
18	0x3e55c529	0.20875992
19	0x3fce08d3	1.6096443
20	0xbee577ba	-0.44817907
21	0xbea22122	-0.31665903
22	0xbd8e2435	-0.069405
23	0x3f5a347c	0.85236335
24	0x3f4502fd	0.76957685
25	0x3f21a13a	0.6313664
26	0x3f898f52	1.0746863
27	0xbeaad084	-0.3336221
28	0x3f88ce04	1.0687871
29	0xbf4ac052	-0.7919971
30	0xbf4d49ae	-0.8019055
31	0xbeed6b50	-0.46370935
32	0x3f9e0681	1.2345735
33	0xbec667a1	-0.38750938
34	0xc0271388	-2.610567
35	0x3f9c04ef	1.2189006
36	0xbf702b50	-0.9381609
37	0xbd6a3038	-0.05717489
38	0x3db60831	0.08888281
39	0x3c24bc4a	0.010054657
40	0xbf1744bf	-0.59089273
41	0xbfbf8259	-1.4961654
42	0x3f8144d5	1.0099131
43	0x3f86d5e1	1.0534021
44	0x3ebbe32e	0.36696762
45	0x3be43d36	0.0069653047
46	0xc02f3252	-2.7374463
47	0x3fce68d4	1.6125741
48	0xbf7a50b8	-0.9777942
49	0x3f6177bc	0.88073325
50	0xbeac23f0	-0.33621168
51	0x40240f9d	2.563453
52	0xbf8f2dd1	-1.1185857
53	0x3f73e88b	0.9527671
54	0x3e84e80f	0.25958297
55	0xbec3f33b	-0.38271508
56	0x3dafa2d6	0.0857598
57	0x3f7a09b5	0.9767106
58	0x3ea07561	0.31339553
59	0xbf3aa786	-0.7291187
60	0x3e4594cc	0.19295043
61	0xbef5912c	-0.4796232
62	0x3f951e63	1.1649898
63	0x3d3a5ead	0.045500446
64	0x3f6a631d	0.91557485
65	0xbfadfc9e	-1.3592718
66	0xbf7586dd	-0.9590891
67	0xbfe6262b	-1.7980398
68	0x3f798f64	0.9748442
69	0x3e41d448	0.18928635
70	0xbf2ed0b5	-0.6828721
71	0xbe661978	-0.22470653
72	0xbf483b73	-0.7821571
73	0xbf578145	-0.84181625
74	0xbd081274	-0.033220723
75	0x3f455718	0.7708602
76	0xbf69b518	-0.9129195
77	0x3f811c19	1.00867
78	0xbf10f54d	-0.566243
79	0xbf055477	-0.5208201
80	0xbfa9a2a6	-1.3252761
81	0xbd17371a	-0.036917783
82	0xbf4614a8	-0.7737527
83	0x3f8c7375	1.0972735
84	0xbe3a5329	-0.18195786
85	0x3f01ab89	0.50652367
86	0xbf92932a	-1.1451161
87	0xbf94b38f	-1.1617297
88	0x3f8456f1	1.0339032
89	0xbe2baa3e	-0.16764161
90	0xc001b801	-2.0268557
91	0xbef3005c	-0.47461212
92	0x3ecc471c	0.39898002
93	0xbf438a62	-0.7638303
94	0xbed52498	-0.4162948
95	0xc0130c9a	-2.2976441
96	0xbd992232	-0.07477225
97	0x400f4623	2.2386558
98	0xbf9880cb	-1.1914304
99	0x3fcfd702	1.623749
100	0xbdf90f37	-0.12161105
101	0x3f2d1d3a	0.6762272
102	0xbff178dc	-1.8865008
103	0xbf8e7e87	-1.1132363
104	0xbf5a9d25	-0.85396034
105	0x3f6bfec0	0.9218559
106	0x401de173	2.4668853
107	0x3ee42cb4	0.44565356
108	0xbeb77e8c	-0.35838735
109	0x3f9b3b27	1.2127427
110	0xbf8d45f2	-1.1036971
111	0x3f4f9546	0.8108715
112	0xbd7984a3	-0.060917508
113	0x3f29b13d	0.6628607
114	0x3fbb68ea	1.4641392
115	0xbc4a34a3	-0.012341651
116	0x3fa2ba38	1.271308
117	0xbeefcb95	-0.46835008
118	0x3fa05ada	1.2527726
119	0x3f1dda83	0.6166155
120	0x3f10ccba	0.5656239
121	0x3fc7df6c	1.5615058
122	0xbfb5b890	-1.4196949
123	0x3f8201ad	1.0156761
124	0x40022a22	2.0338216
125	0x3ee5b53d	0.44864836
126	0xbf2dfa31	-0.67959887
127	0x3e28e5ca	0.16493908
128	0x3eafca46	0.3433401
129	0xbecb8501	-0.3974991
130	0xbf03f209	-0.5154119
131	0x3e8c6ada	0.2742527
132	0x3ea99a56	0.3312556
133	0xbfbaab1b	-1.4583467
134	0x3f1cf8b5	0.61316997
135	0x3fa2bfac	1.2714744
136	0xbfbf7972	-1.4958937
137	0xbf35e12c	-0.7104671
138	0x401ba034	2.431653
139	0xbf0f83b1	-0.5606032
140	0x3f89b168	1.0757265
141	0xbf94ba3d	-1.1619335
142	0xbfbb8b0a	-1.4651806
143	0x3fdbfccb	1.7186521
144	0x3d947781	0.07249356
145	0x3f351bf2	0.70745766
146	0xbe982927	-0.29718897
147	0x3effe675	0.49980512
148	0xbf8315af	-1.0240992
149	0x3eeed567	0.46647188
150	0x3e55fd1c	0.20897335
151	0x3f083255	0.532018
152	0xbfaae549	-1.3351222
153	0x3e899e55	0.2687861
154	0x3fbe2e6c	1.4857917
155	0x3f63e370	0.8901892
156	0xbfa652f8	-1.299407
157	0x3ccceb9d	0.025014693
158	0x3eeb5f15	0.4597098
159	0xbf49a845	-0.78772384
160	0xbd539423	-0.051654946
161	0x3f68e5f6	0.9097589
162	0xbfa59155	-1.2934977
163	0xbfaa4d7b	-1.3304895
164	0xbf9e6603	-1.2374882
165	0xbf461be4	-0.7738631
166	0xbcf987d3	-0.030460274
167	0xbf4c8215	-0.7988599
168	0x3f74cbe7	0.9562363
169	0x3ef5692c	0.47931802
170	0xbfc6d86d	-1.5534798
171	0xbfb12293	-1.3838676
172	0xbf1ac779	-0.6046062
173	0x3ebc8b94	0.3682524
174	0x3f84110f	1.0317706
175	0xbf875553	-1.0572914
176	0xbf271780	-0.65270233
177	0x3f2141be	0.6299094
178	0xbf61b340	-0.8816414
179	0xbf229442	-0.63507473
180	0x3f7187ea	0.94348013
181	0x3e41b7a7	0.18917714
182	0x3fb37fc2	1.4023364
183	0xbf455d34	-0.7709534
184	0x3f5e5886	0.86853826
185	0x3e0fe8fc	0.1405372
186	0xbf8505d4	-1.0392404
187	0x3ecd2939	0.40070513
188	0x3f49b9e6	0.78799284
189	0x3f5f71d9	0.8728309
190	0xbec49fa5	-0.3840305
191	0x3e609b43	0.21934228
192	0xbf398705	-0.7247165
193	0xbf412752	-0.75450623
194	0x3ffe42ef	1.9864177
195	0xbf810160	-1.0078545
196	0x3f1240ec	0.5713031
197	0xbf06d099	-0.52662045
198	0xbe8dd71e	-0.27703184
199	0x3d76f7e3	0.060294997
200	0xbf1840aa	-0.5947367
201	0xc00686a9	-2.101969
202	0x3fbd1e3d	1.4774853
203	0x3fa44b91	1.2835561
204	0x3ee01b98	0.43771052
205	0xbe07a97a	-0.13248244
206	0xbf6e3928	-0.93055964
207	0xbc829984	-0.015942343
208	0xbfc97bb6	-1.5740879
209	0xbf6dc8eb	-0.928847
210	0x3f497067	0.7868714
211	0xbf5ed6e5	-0.87046653
212	0x3f0f0220	0.5586262
213	0xbe349624	-0.17635399
214	0x3e51a70d	0.20473881
215	0x3f8f448c	1.1192794
216	0x3eb53d7a	0.35398465
217	0xbf24fbf7	-0.6444697
218	0xbedfb199	-0.43690184
219	0xbf39aedb	-0.72532433
220	0xbec5a127	-0.38599512
221	0xbe4159c9	-0.18881907
222	0xbf1b2b08	-0.60612535
223	0x3e7a25d7	0.24428497
224	0xbf3c375a	-0.7352196
225	0xbed43aa3	-0.41450986
226	0x3f657f59	0.8964744
227	0xbf9583fa	-1.1680901
228	0xbf43d264	-0.76492906
229	0x3ee44d75	0.44590345
230	0x3f7f2f6a	0.99681723
231	0xbf238837	-0.6387972
232	0xbfab87c3	-1.3400806
233	0xbf052025	-0.52002174
234	0xbf888f75	-1.066878
235	0x3f0aaa2a	0.541659
236	0x3f367678	0.7127452
237	0x3f45871a	0.77159274
238	0xbf6d0a20	-0.92593575
239	0xbf0d3ca5	-0.5517066
240	0xbf8e3e89	-1.1112834
241	0x3e20a03c	0.15686125
242	0xbf7e41c2	-0.9931909
243	0xbf9d8b16	-1.2308071
244	0xbf65a9ba	-0.8971211
245	0xbecfcee8	-0.40587544
246	0x3ee4b2b7	0.446676
247	0xbf9384a9	-1.152486
248	0x3f8c41d3	1.0957588
249	0xc018cb75	-2.387418
250	0x3d9c5784	0.0763388
251	0x3fcc9310	1.598238
252	0x3f961951	1.1726476
253	0x3fb21314	1.3912072
254	0xbf8911fd	-1.0708615
255	0x3e975ceb	0.29563078

embedding_outside.weight f4 [4488, 5]
0	0x3f0185b6	0.5059465
1	0x3f2575a9	0.6463266
2	0xbf9e09ad	-1.2346703
3	0xbf3c9d97	-0.73677963
4	0xbf53ef3c	-0.8278692
5	0x3ec495d8	0.38395572
6	0xbfcb81b0	-1.5898952
7	0xbf2844bd	-0.65729886
8	0x3ee6e4b0	0.4509635
9	0xbe7e4a96	-0.2483314
10	0xbfaf656a	-1.3702824
11	0x3f2753b5	0.653621
12	0xbf3ba1f8	-0.7329402
13	0xbf23a16d	-0.6391819
14	0xbf10253f	-0.56306833
15	0x3f37bbb0	0.71770763
16	0xbf61c5e8	-0.88192606
17	0xbe9d4e09	-0.307236
18	0x3ea472c3	0.32118806
19	0x3f271b6f	0.65276235
20	0x3e0c46b3	0.13698845
21	0x3e7edd5f	0.24889134
22	0x3f12c18f	0.57326597
23	0x3da1f0a6	0.07907228
24	0x3ef41334	0.476709
25	0xbf63afbe	-0.88940036
26	0x3f492c09	0.7858282
27	0xbf020c7e	-0.5080031
28	0xbe90386b	-0.28168043
29	0xbf9f186b	-1.2429327
30	0xbf1e395d	-0.6180628
31	0x3f69df64	0.9135649
32	0xbf0e1569	-0.5550142
33	0x3da0a11d	0.0784323
34	0xbf015edf	-0.50535387
35	0xbff98c27	-1.9495896
36	0x3fa3b07d	1.2788235
37	0x3ed1b061	0.4095488
38	0xbe72c862	-0.23709252
39	0xbf5de275	-0.8667367
40	0x3f646091	0.8920985
41	0x3f97d947	1.1863183
42	0xbf527376	-0.8220743
43	0x3ed66452	0.41873413
44	0x3f65644c	0.89606166
45	0x3e865985	0.26240173
46	0xbf1fe18a	-0.6245352
47	0x3f98d119	1.1938812
48	0xbda36644	-0.0797849
49	0x3e5417e2	0.20712236
50	0x3f0929a8	0.5357919
51	0x3f8b2205	1.0869757
52	0xbf2c4fea	-0.6730944
53	0x3f123c99	0.57123715
54	0x3f1a0617	0.6016554
55	0xbf09e680	-0.5386734
56	0xbf3691e4	-0.7131636
57	0x3e99b439	0.3002031
58	0xbf70d936	-0.9408144
59	0xbe18dc14	-0.14927703
60	0xbfc278d3	-1.5193123
61	0x4010649c	2.2561407
62	0x3ea75112	0.3267904
63	0x3d08948e	0.033344798
64	0x3fa9f314	1.3277307
65	0x3f827a27	1.0193528
66	0x3f3d1b64	0.7386992
67	0xbd832e1f	-0.06405281
68	0xbf195b0f	-0.5990457
69	0x3f4ba2f0	0.795455
70	0xbee23269	-0.44179085
71	0xbf9667f4	-1.1750474
72	0xbd2e524f	-0.042558964
73	0x3ebd8666	0.370166
74	0xbf795c7e	-0.97406757
75	0xc01e9597	-2.4778802
76	0xbe7c1260	-0.24616385
77	0x3f790971	0.9728003
78	0xbe52e294	-0.20594245
79	0x401ebb08	2.4801655
80	0x3fb9d433	1.4517883
81	0x3db84635	0.08997766
82	0xbf1a6ef0	-0.6032553
83	0x3eaa66dc	0.332816
84	0xbfb7f1d5	-1.4370676
85	0xbf56d7a3	-0.83922786
86	0x3e40568f	0.1878302
87	0xbec3e060	-0.38257122
88	0xbe9082d7	-0.28224823
89	0x3ebde15a	0.37085992
90	0xbf168022	-0.58789265
91	0x3db1749e	0.08664821
92	0x3ff950e8	1.9477816
93	0xbbf52ba4	-0.007482009
94	0xbea25569	-0.31705788
95	0x3fc35336	1.5259769
96	0x3f438d03	0.7638704
97	0x3f11fae9	0.57023484
98	0xbdba5f14	-0.09100166
99	0x3f1ee228	0.6206384
100	0xbf46afba	-0.7761189
101	0xbf778ca4	-0.96698976
102	0xc00ef6bc	-2.2338095
103	0xbe7044d5	-0.23463757
104	0xbf989816	-1.1921413
105	0xbf9a21b3	-1.2041534
106	0x3f93084f	1.148691
107	0xbe9753ae	-0.2955603
108	0xbec8bdf1	-0.39207414
109	0xbf307068	-0.6892152
110	0x3f0de567	0.55428165
111	0xbf8924f8	-1.0714407
112	0x3fa24012	1.2675803
113	0x3ec226bf	0.37920186
114	0x3ea6e387	0.32595465
115	0xbe0a16f0	-0.13485312
116	0x3f347053	0.70483893
117	0xbf83abcf	-1.0286807
118	0x3f7893a7	0.971003
119	0xbd1298b1	-0.03579015
120	0xbfdeb310	-1.7398396
121	0x3dfafee9	0.122556515
122	0xbfd90a84	-1.6956334
123	0x3f9b2196	1.2119625
124	0xbe27862a	-0.16359773
125	0x3d78a448	0.060703546
126	0x3f5ad46e	0.8548039
127	0xbfa189ee	-1.2620218
128	0x3f0e9d11	0.55708414
129	0xbf4c9be1	-0.7992535
130	0xbe61f306	-0.22065362
131	0xbe136de1	-0.14397384
132	0x3f0e3da0	0.5556278
133	0xbea75bf6	-0.32687348
134	0xbf18877c	-0.5958173
135	0xc0536a37	-3.3033578
136	0xbf1748c5	-0.5909541
137	0xbf98103e	-1.1879957
138	0xbf310efd	-0.69163495
139	0xbf9fa55d	-1.247234
140	0xbe7ce4f0	-0.24696708
141	0xbeaeed30	-0.34165335
142	0x3f4f8cf9	0.8107448
143	0x3fc9e03f	1.577156
144	0xbe560e81	-0.2090397
145	0xbf35de14	-0.7104199
146	0xc005a0cb	-2.087939
147	0xbff3be99	-1.9042541
148	0xbf68bdca	-0.90914595
149	0x3ef974b5	0.48721853
150	0xbd244d21	-0.04011262
151	0x3f931ad9	1.1492568
152	0xbecdfcfb	-0.4023207
153	0xbfccff7f	-1.6015471
154	0xbb9b7bfa	-0.004745004
155	0x3f20f55e	0.628744
156	0x3e846fd8	0.2586658
157	0xbfb422c3	-1.4073108
158	0x3e6a1eaf	0.22863267
159	0x3e452f39	0.19256295
160	0xbed055c5	-0.40690437
161	0x3f97c318	1.1856413
162	0x3ef6fd64	0.48240197
163	0xbf07656d	-0.5288914
164	0x3eaf00f0	0.34180403
165	0x3de73534	0.112894446
166	0xbf977aa7	-1.1834306
167	0x3f271800	0.65270996
168	0xbeb72eef	-0.35777995
169	0xbf2c9022	-0.6740743
170	0x3f16ca17	0.58902115
171	0x3f7c6ab6	0.9860033
172	0xbf83454a	-1.025552
173	0xbea45dfd	-0.32102957
174	0xbe73d79c	-0.23812717
175	0x3e839c72	0.25705296
176	0xbf0f0a5b	-0.55875176
177	0x3fc61083	1.5473789
178	0x3ef461d6	0.47730893
179	0x401886ee	2.3832355
180	0xbf7c9322	-0.98662007
181	0x3f0985cf	0.537198
182	0xbf7e6eb4	-0.9938767
183	0xbe85bba8	-0.26119733
184	0xbf4a021b	-0.7890946
185	0xbedc6fe5	-0.4305412
186	0xbf842980	-1.0325165
187	0xbca8efd9	-0.02062218
188	0xbfc3aa4c	-1.5286345
189	0xbfb4bcbe	-1.41201
190	0xbfec4994	-1.8459954
191	0x3fa92e0c	1.3217177
192	0x3f3993ac	0.72490954
193	0xbe8ca1c9	-0.27467182
194	0xbe90c276	-0.28273362
195	0xbf250960	-0.6446743
196	0x3f06afa6	0.5261177
197	0xbf6de18e	-0.92922294
198	0x3fbb4705	1.4631048
199	0x3e3d08d4	0.18460399
200	0xbf318323	-0.69340724
201	0x3fd928b5	1.6965548
202	0x3f866223	1.0498699
203	0xbf0406e3	-0.5157301
204	0xbfac1c21	-1.3446084
205	0xbe8e9568	-0.27848363
206	0xbf5fcd76	-0.87422884
207	0xbfb9f43b	-1.4527658
208	0x3f0a846b	0.54108304
209	0x3f65b508	0.89729357
210	0xbf47cef2	-0.7805015
211	0x3feddc68	1.8582888
212	0x3f84e219	1.03815
213	0x3fcc2a62	1.5950434
214	0x3fe57d56	1.7928874
215	0xbfaad89e	-1.3347356
216	0x40037434	2.0539675
217	0xc02cc308	-2.6994038
218	0xbf05b242	-0.52225125
219	0x3fee4329	1.8614246
220	0x3d62b0c3	0.055344354
221	0x3f391690	0.7230005
222	0x3f590823	0.8477804
223	0xbf15dc3d	-0.5853918
224	0xbf0f766d	-0.5604008
225	0x3e676b06	0.2259942
226	0x3f802df5	1.0014025
227	0xbf4504ef	-0.76960653
228	0x3f34da44	0.70645547
229	0x3f1551b9	0.58327824
230	0x3f27939c	0.6545961
231	0x3ef1aaed	0.4720072
232	0x3f957071	1.1674939
233	0x3ec61f77	0.3869588
234	0xba5947e1	-0.0008288604
235	0xbf86834b	-1.0508817
236	0x3e3a75e8	0.1820904
237	0xbf162922	-0.58656514
238	0xc0163265	-2.3468258
239	0x3e68bae3	0.22727542
240	0xbe543dbf	-0.2072668
241	0xbe72bbcd	-0.23704453
242	0xbfaa4807	-1.3303231
243	0xbfb21964	-1.3913999
244	0x3e1ddfa8	0.1541735
245	0x3f1c340a	0.61016905
246	0xbe270e92	-0.16314152
247	0xbf8cc74f	-1.0998324
248	0x3ee5ab03	0.44857034
249	0xbf627b73	-0.8846962
250	0xbf6fc3c1	-0.9365807
251	0x3f0258b4	0.509166
252	0x3b7c7ebc	0.0038527688
253	0xbeb8c0a3	-0.3608447
254	0xbeb938ec	-0.3617624
255	0x4024b008	2.573244
