A1_That_s_What_I_LIKE/app/models/skipgram.model (torch, 73438 bytes, 2 tensors)

embedding_center.weight f4 [4488, 2]
0	0x3f456d97	0.77120346
1	0xbf4feb43	-0.81218356
2	0x3fc685a3	1.5509533
3	0x3ebf14c4	0.3732053
4	0x3ff542fb	1.9161066
5	0xbf0330a1	-0.51246077
6	0xbf95a423	-1.1690716
7	0xbf8dc002	-1.1074221
8	0x3f2da79c	0.67833877
9	0x3e46f11e	0.19427916
10	0x3ee6f8a4	0.45111573
11	0xbea7b89b	-0.3275803
12	0xbf9f719c	-1.2456546
13	0x3f1315b0	0.5745497
14	0x3eba9c25	0.36447254
15	0xbf0d534e	-0.5520524
16	0xbf01f6b1	-0.50767046
17	0x3ea036f1	0.31291917
18	0x3f55ad82	0.83467877
19	0xbfa46562	-1.284344
20	0x3d982a6d	0.07429967
21	0x3e9b6680	0.3035164
22	0xbe65d664	-0.22445065
23	0xbe77a8f4	-0.24185544
24	0xbf4c6561	-0.7984219
25	0x3f82c625	1.0216719
26	0x3d231442	0.03981424
27	0xbfc6eb97	-1.5540646
28	0xbfc0deb6	-1.5067966
29	0x3ee35817	0.44403145
30	0xbfa5d6a9	-1.2956134
31	0x3f2116e5	0.6292556
32	0x3fac989c	1.3484073
33	0xbeb7d29a	-0.35902864
34	0x3ecc757f	0.39933392
35	0x3fc3ff58	1.53123
36	0xbfebaa42	-1.8411334
37	0xbf60bfa2	-0.8779241
38	0x3dc10238	0.09424251
39	0x3edb226d	0.42799702
40	0xbd4af1e2	-0.049547084
41	0x3eed4f39	0.46349505
42	0x3ed0c0f8	0.40772223
43	0x3f97f5a1	1.1871835
44	0xbe2c9de8	-0.16857111
45	0x3f0c1231	0.5471526
46	0x3e9fc920	0.31208134
47	0xbdfed854	-0.12443605
48	0x3e7801ff	0.24219511
49	0x3f298198	0.6621337
50	0xbdef0f35	-0.116728224
51	0x3e6fb157	0.23407494
52	0x3e5b4272	0.21412066
53	0xbed4866b	-0.41508803
54	0xbe0fe39e	-0.14051673
55	0xbf95c010	-1.1699238
56	0xbea932b1	-0.33046487
57	0xbec8d567	-0.39225313
58	0x404553ba	3.0832353
59	0x3f2370ca	0.6384398
60	0x3f466279	0.7749401
61	0xbf87a35b	-1.0596727
62	0x3e570189	0.2099668
63	0x3e5fc3fe	0.21852109
64	0xbffcf17a	-1.9761193
65	0x3dedcd03	0.116113685
66	0xbec11b50	-0.3771615
67	0xc027dcdd	-2.6228554
68	0x3ea93e15	0.33055177
69	0x3e31479b	0.17312472
70	0x3e78b13a	0.24286357
71	0x3f0bfdf6	0.5468439
72	0xbe938287	-0.28810522
73	0x3f0c51b7	0.54812187
74	0xbfbff66f	-1.499708
75	0x3fab1450	1.3365574
76	0x3de91fe1	0.113830335
77	0x3f52fdfb	0.82418793
78	0xbf9eccaa	-1.2406209
79	0x3f2b449a	0.6690155
80	0x3e145a04	0.14487463
81	0xbb07613a	-0.0020657317
82	0x3e862b1a	0.2620476
83	0xbc285547	-0.010274238
84	0xbd4f7095	-0.050644476
85	0x3e8dac4f	0.27670524
86	0x3f810ed1	1.0082647
87	0x3f06fa18	0.5272536
88	0x3eea3037	0.4573991
89	0x3e5a4fe4	0.21319538
90	0xbf78fcc5	-0.97260696
91	0x3d02cc3c	0.031933054
92	0xc028af24	-2.6356897
93	0x3ff8aac5	1.9427115
94	0x3f940a41	1.1565629
95	0x3ebe13a4	0.3712436
96	0x3e0311cb	0.12799756
97	0xbf9a4c01	-1.2054445
98	0x3f249617	0.6429152
99	0x3f6fbe33	0.93649596
100	0xbdc2d39c	-0.095130175
101	0xbef856ba	-0.48503667
102	0xbf2d68eb	-0.6773822
103	0x3ecf6dc2	0.40513426
104	0x3c11e8c1	0.0089055905
105	0xbd97f7fa	-0.07420345
106	0xbfbe63ea	-1.4874241
107	0x3f4f75a2	0.8103887
108	0x3f0c954c	0.5491531
109	0xbf5f1aa3	-0.8715002
110	0xbec6a263	-0.38795766
111	0x3e175968	0.147802
112	0x3eee9735	0.46599737
113	0x3f32cec5	0.69846755
114	0x3e85a918	0.2610557
115	0x3e865faf	0.26244876
116	0xbc9a98f7	-0.018871767
117	0x3beec934	0.007287169
118	0x3f768ab7	0.9630541
119	0x3f83dcec	1.0301795
120	0x3e86b90d	0.26313058
121	0x3da9c45a	0.08289404
122	0x3f1d517a	0.6145245
123	0xbea46643	-0.3210927
124	0xbeea7905	-0.45795456
125	0x3ea9146f	0.33023402
126	0x3fc493fb	1.535766
127	0xbf287cd8	-0.65815496
128	0x3cbab378	0.022790655
129	0xbd4ea043	-0.050445806
130	0x3f74055f	0.95320696
131	0xbe5604a0	-0.20900202
132	0x3e4ccb9c	0.19999546
133	0x3e44e977	0.19229685
134	0xbe45dd85	-0.19322784
135	0x3fb7dd06	1.4364326
136	0xc004a210	-2.0723915
137	0x3f074256	0.52835596
138	0xbed0bb33	-0.40767822
139	0x3ff48c61	1.910534
140	0x3e53f639	0.20699395
141	0x3f2e9653	0.68198127
142	0x3f73ffab	0.95311993
143	0x3eddea3c	0.4334277
144	0x3ef786b5	0.4834496
145	0xbf31585d	-0.69275457
146	0xc0113cdc	-2.2693396
147	0x3c882c85	0.016622791
148	0x3e455f76	0.19274697
149	0xbde4811f	-0.111574404
150	0xbe87917e	-0.2647819
151	0xbf2ceee6	-0.6755203
152	0x3eecd4a5	0.46255985
153	0xbf021bd5	-0.5082372
154	0x3ef88243	0.48536882
155	0x3e411ad3	0.18857889
156	0x3faf10ad	1.3676964
157	0xbf1e0a4a	-0.6173445
158	0x3e0495e7	0.12947808
159	0x4041d8ff	3.0288694
160	0xbff84e81	-1.9398957
161	0xbfacb029	-1.349126
162	0xbf19c22b	-0.600619
163	0x3f1f6cb3	0.62275237
164	0xbec74cc7	-0.38925764
165	0x3ed4d32d	0.41567364
166	0xbf8c908e	-1.0981615
167	0x3f06fa3f	0.52725595
168	0x3f403b4e	0.7509049
169	0xbe7ded8e	-0.24797651
170	0xbf4ecae1	-0.8077832
171	0x3c367fe8	0.011138894
172	0x3f579eb2	0.84226525
173	0x3fb3e8ed	1.4055458
174	0x3ecec37a	0.40383512
175	0x3e9c11d7	0.3048236
176	0xbf1261ae	-0.571803
177	0xbedd8e86	-0.432728
178	0x3ece3362	0.40273577
179	0x3f85b5ef	1.0446147
180	0xbfa3fd7b	-1.2811731
181	0x3ede683a	0.43438894
182	0xbf2509c8	-0.6446805
183	0xbe603167	-0.21893845
184	0x3e84a203	0.25904855
185	0xbda9d23e	-0.08292054
186	0x3f05d6ae	0.522807
187	0xbe48acca	-0.19597164
188	0x3f9b5d1d	1.2137791
189	0xbe976715	-0.29570833
190	0x3fbe73f5	1.4879137
191	0x3f0b1891	0.5433436
192	0x3e9f32ef	0.31093547
193	0x3f281345	0.656544
194	0x3f0b01d0	0.5429964
195	0x3f2e51b8	0.6809344
196	0x3ec4d9df	0.38447472
197	0x3e3e982c	0.18612736
198	0xbeb201e8	-0.3476708
199	0xbfd5795f	-1.6677665
200	0xbc9cedd0	-0.019156367
201	0xbf8f4a72	-1.1194594
202	0x3d8c29e4	0.068439275
203	0xbcdccc81	-0.026952984
204	0xbfabafb5	-1.3412997
205	0xbf76f101	-0.9646149
206	0x3f666d35	0.90010387
207	0x3f0533bb	0.5203206
208	0xbfb3793f	-1.4021376
209	0x3d3df655	0.0463775
210	0x3f2e7fe5	0.681639
211	0xbebdaa97	-0.37044212
212	0xbc3d48fc	-0.011553045
213	0x3f72e40e	0.94879234
214	0xbf493f8c	-0.7861259
215	0x3eab6369	0.3347428
216	0x3f143f56	0.5790914
217	0xbfb16399	-1.385852
218	0xbf0c5bf6	-0.5482782
219	0xbe44192c	-0.19150227
220	0x3f0577de	0.5213603
221	0xbe02e042	-0.1278086
222	0xbed844a1	-0.4223986
223	0xba3f40b9	-0.0007295716
224	0xbe945f70	-0.28979063
225	0x400371b9	2.053816
226	0x3eaeb02d	0.34118786
227	0x3f84dc2d	1.0379692
228	0x3fc821b4	1.5635285
229	0x3e939018	0.28820872
230	0x3f249f97	0.64306015
231	0xbf465d4b	-0.77486104
232	0x3ebb2568	0.36551976
233	0x3ed6121c	0.4181069
234	0x3f17afdf	0.59252733
235	0x3f2c4cee	0.67304885
236	0x3f814084	1.0097814
237	0x3e90c7a0	0.28277302
238	0xbfb5070d	-1.4142777
239	0xbf36129b	-0.7112214
240	0x3ee89635	0.454271
241	0xbf5c16b7	-0.8597216
242	0xc000e3bc	-2.0138998
243	0x3e5ef3c0	0.21772671
244	0x3e0fec17	0.14054905
245	0xbfaa4e85	-1.3305212
246	0xbca883c6	-0.020570647
247	0xbe18d4aa	-0.14924875
248	0xbf957ac4	-1.167809
249	0xbff26848	-1.8938074
250	0xbe968812	-0.29400688
251	0xbf96f070	-1.1792126
252	0xbe254df2	-0.16143015
253	0xbf975636	-1.1823184
254	0x3ee88c67	0.45419618
255	0xbfba5bbc	-1.4559245

embedding_outside.weight f4 [4488, 2]
0	0xbfa45ad9	-1.2840225
1	0xbd611378	-0.054950207
2	0x3fd44f92	1.6586783
3	0xbfcf63fd	-1.6202389
4	0x3f915598	1.1354246
5	0x3e5dd669	0.21663822
6	0x3fbe7cdf	1.4881858
7	0xbed52886	-0.4163248
8	0x3f1927ee	0.5982655
9	0xbe85b740	-0.2611637
10	0xbe927556	-0.28605145
11	0xbf0f2319	-0.5591293
12	0x3f86d3c5	1.0533377
13	0xbe95d947	-0.29267332
14	0xbf7662d6	-0.9624456
15	0x3c7446d1	0.014909462
16	0x3e51027c	0.20411104
17	0xbf2e993e	-0.6820258
18	0x3f0d950c	0.5530555
19	0xbdd9dd56	-0.106379196
20	0x3f228349	0.63481575
21	0xbf8e4250	-1.1113987
22	0x3f3e24a0	0.74274635
23	0x3f46e008	0.77685595
24	0x3fb0ae61	1.3803216
25	0x3ee02e8c	0.43785512
26	0x3f1c0504	0.60945153
27	0xbe119854	-0.14218265
28	0xbdaca46a	-0.08429797
29	0xbf1fefb4	-0.6247513
30	0x3fa60bca	1.2972348
31	0xbf140cf8	-0.5783229
32	0xbe953b2a	-0.291467
33	0xbf5624a5	-0.83649665
34	0xbe1303bf	-0.14356898
35	0x3dcd10bd	0.10012958
36	0x3ee3e473	0.4451023
37	0x3f51ab1a	0.81901705
38	0xbd29581e	-0.0413438
39	0x3f8524e2	1.0401881
40	0x3f28e271	0.6597052
41	0x3f293f3b	0.6611211
42	0xbc91eeb7	-0.017814023
43	0x3f290835	0.6602815
44	0x3e852cb0	0.26010656
45	0x4019f5b4	2.4056215
46	0x3e950c00	0.29110718
47	0xbebc1e2e	-0.36741775
48	0x3f0b9fc6	0.5454067
49	0xbe755f5f	-0.23962162
50	0xbe1f19fc	-0.15537256
51	0xbe97b90e	-0.29633373
52	0xbf0d2722	-0.55137837
53	0x3fd1c99a	1.6389649
54	0x3f844d79	1.0336143
55	0xbfc0d396	-1.5064571
56	0x3f8fe6f7	1.124236
57	0x3fdf9c93	1.7469658
58	0x3fc6e69b	1.5539125
59	0xbfee33bb	-1.8609537
60	0xbe58e181	-0.21179773
61	0xbe0c12c8	-0.1367904
62	0xbe9d04cf	-0.3066773
63	0xbfad1104	-1.3520818
64	0xbe539cd9	-0.20665301
65	0xbf2161d3	-0.6303989
66	0xbeb76a5f	-0.35823342
67	0xbf805bb7	-1.0027989
68	0xbe922bd5	-0.28549066
69	0x3f8ba8f0	1.0910931
70	0x3f0feb61	0.56218535
71	0x400f0796	2.234838
72	0xbf46865c	-0.77548766
73	0x3f4b2685	0.7935565
74	0x3da7a8b2	0.08186473
75	0x3f96f3dc	1.179317
76	0x3f86cb81	1.0530854
77	0xbec38c1c	-0.38192832
78	0xbf3e91ff	-0.7444152
79	0x3f0d6065	0.5522521
80	0x3fa04f48	1.2524195
81	0x3f6cf0a7	0.92554706
82	0x3edf9a59	0.43672445
83	0xbecf0f65	-0.40441433
84	0x3f9302e9	1.1485263
85	0x3f239c09	0.63909966
86	0xbf6c7d6f	-0.92378896
87	0x3f446ba1	0.7672673
88	0xbfaa39f2	-1.3298934
89	0x3ed8b1b6	0.42323083
90	0xbe80e4a9	-0.25174454
91	0xbf86c811	-1.0529805
92	0xbef0cc58	-0.47030902
93	0xbea82e8e	-0.32848018
94	0xbfc84e2b	-1.5648855
95	0xbeacc9f4	-0.33747828
96	0x3ecf32ea	0.40468532
97	0x3fb15d2d	1.385656
98	0x3f806bfb	1.0032953
99	0xbf2283b6	-0.63482225
100	0x3ecc3157	0.39881393
101	0xbf032468	-0.51227427
102	0x3e8f165a	0.2794674
103	0x3ecc2016	0.3986823
104	0xbfd6fb4e	-1.6795442
105	0xbf1d765e	-0.6150874
106	0xbe73be46	-0.23803052
107	0x3efa87ef	0.48931834
108	0xbe1c8d1d	-0.15288205
109	0xbe905acc	-0.28194273
110	0x3fed7f85	1.8554541
111	0xbea7b763	-0.327571
112	0xbee4b2aa	-0.4466756
113	0xbe8176d0	-0.2528596
114	0x3c6eaf22	0.014568122
115	0x3f8b49d4	1.0881906
116	0xc0094ab6	-2.145185
117	0xbeb410b9	-0.35169008
118	0xbf900983	-1.1252903
119	0x3e42a003	0.19006352
120	0x3e39677a	0.1810588
121	0xbe2c09b9	-0.16800584
122	0xbfa51f5a	-1.2900193
123	0xbf53c0f0	-0.82716274
124	0x3e3b5852	0.1829541
125	0xbf752ccf	-0.957715
126	0xbecf9f80	-0.40551376
127	0x3f995e40	1.1981888
128	0xbd516c30	-0.051128566
129	0x3f3bda10	0.7337961
130	0x3e962c44	0.29330647
131	0x3f3153bb	0.6926839
132	0xbef721f9	-0.48268107
133	0xbf4d36f5	-0.8016198
134	0xbe47bfa6	-0.19506702
135	0xbed8c892	-0.42340523
136	0xbec7f464	-0.39053643
137	0xbf94b501	-1.1617738
138	0x3f784ad2	0.96989167
139	0xbe99aaca	-0.30013114
140	0xbfb65d63	-1.4247249
141	0xbfd927d8	-1.6965284
142	0xbf20fefe	-0.6288909
143	0x3fb3736d	1.40196
144	0xbe487ae9	-0.19578137
145	0xbeec5ab6	-0.46162957
146	0xbf960b58	-1.1722212
147	0x3f29524b	0.66141194
148	0xbfb8c3d3	-1.4434761
149	0x3f6ecbac	0.9327953
150	0xbfe3f399	-1.7808715
151	0x3fdf2f56	1.7436321
152	0xbe98ddb0	-0.29856634
153	0xbf01ca83	-0.50699633
154	0xbf5b1900	-0.8558502
155	0xbfbf5f63	-1.4950985
156	0x3f197665	0.5994628
157	0xbf59c0a7	-0.8505959
158	0x3fb1e75c	1.389873
159	0xbfbd48da	-1.4787858
160	0xbfc2ba66	-1.5213134
161	0xbe099cdb	-0.13438742
162	0xbef15730	-0.4713683
163	0xbfe29154	-1.7700601
164	0xbe643079	-0.22284116
165	0x3f301970	0.68788815
166	0xbebb7e14	-0.36619627
167	0x3ea6f541	0.3260899
168	0xbf36c454	-0.7139332
169	0xbfe25968	-1.7683535
170	0x3f36f98a	0.71474516
171	0xbf538c69	-0.82636124
172	0xbf3dc121	-0.74122816
173	0x3f9974ec	1.1988807
174	0x3f4e6588	0.80623674
175	0xbfc56ec4	-1.5424428
176	0xbe9a91ca	-0.30189353
177	0x3f8da559	1.1066085
178	0xbf412537	-0.7544741
179	0xbf4381a1	-0.76369673
180	0x3ec2bc5e	0.38034338
181	0xbf4a6e6c	-0.7907474
182	0x4026766f	2.6009786
183	0xbfd47b8f	-1.6600207
184	0x3f022c74	0.5084908
185	0xbf7639ad	-0.96181756
186	0xbece13a0	-0.40249348
187	0x3f24465f	0.6416988
188	0x3f560107	0.8359532
189	0xbf39a0c8	-0.7251096
190	0xbfa03cae	-1.2518518
191	0xbf82323c	-1.017158
192	0xbf1496ec	-0.5804279
193	0x3e32cc6e	0.17460796
194	0x401c58bb	2.4429157
195	0xbfc92c8f	-1.5716723
196	0x3e184c8c	0.1487295
197	0x3e9d629f	0.30739304
198	0xbecc2413	-0.39871272
199	0x3f46edeb	0.77706784
200	0x3f2970b6	0.6618761
201	0x3f89715a	1.0737717
202	0x3f86bbfe	1.0526121
203	0xbf39797d	-0.72451
204	0x3e78dc93	0.24302892
205	0xbfac4dd5	-1.3461252
206	0x3e9b5e3f	0.30345342
207	0x3f0e9b40	0.5570564
208	0x3f1eb9eb	0.6200244
209	0xc00ca598	-2.197607
210	0x3f88854a	1.0665677
211	0x3f07ae6d	0.5300053
212	0xbf57d870	-0.8431463
213	0xbf4a9d41	-0.791462
214	0xbd180390	-0.037112772
215	0xbfaef167	-1.366742
216	0xbea0f5d0	-0.3143754
217	0xbe068b2b	-0.13139026
218	0xbfdb6ce2	-1.7142603
219	0xbfe19fea	-1.7626927
220	0xbee8427b	-0.4536322
221	0xbd7f66c6	-0.06235387
222	0x3ed916ac	0.4240011
223	0x3f264df9	0.64962727
224	0x3ea4fa5f	0.32222268
225	0xc005287c	-2.080596
226	0xbf0edc17	-0.5580458
227	0x3ecc69dc	0.39924514
228	0x3f6c92a6	0.9241127
229	0xbf86ead2	-1.0540411
230	0x3e78dd61	0.243032
231	0x3ee7b7ad	0.4525732
232	0xc005e6f9	-2.0922225
233	0xbf9ed958	-1.2410078
234	0x4021a5ca	2.525744
235	0x3f6883d5	0.9082616
236	0x3f47fb79	0.7811809
237	0x3ff17d21	1.8866311
238	0xbe2ad3fc	-0.16682428
239	0x3ebb10ed	0.3653635
240	0xbf2a03f5	-0.6641229
241	0x3f70c509	0.9405065
242	0x3ef8da0b	0.48603854
243	0x3f2f4013	0.68457144
244	0xbf23cfa3	-0.63988703
245	0x4000c37f	2.0119321
246	0x3ece0464	0.40237725
247	0x3e85c69c	0.2612809
248	0x3e6836ff	0.2267723
249	0x3e049258	0.1294645
250	0x3f8130ee	1.0093057
251	0x3eeb0783	0.45904168
252	0x3e861aef	0.26192424
253	0x3f10c0d5	0.5654424
254	0xbf5d67bb	-0.86486405
255	0xbdd9a126	-0.1062644
